…
I0412 01:05:24.562872 10646 solver.cpp:48] Initializing solver from parameters: 
base_lr: 0.001
display: 100
max_iter: 100000
lr_policy: "step"
gamma: 0.5
momentum: 0.9
weight_decay: 0.0001
stepsize: 10000
solver_mode: GPU
device_id: 0
net: "train_val.prototxt"
I0412 01:05:24.562927 10646 solver.cpp:91] Creating training net from net file: train_val.prototxt
I0412 01:05:24.563709 10646 net.cpp:49] Initializing net from parameters: 
name: "metric"
state {
  phase: TRAIN
}
layer {
  name: "data"
  type: "HDF5Data"
  top: "data"
  top: "label"
  hdf5_data_param {
    source: "metric_shuf.txt"
    batch_size: 64
  }
}
layer {
  name: "data_slice"
  type: "Slice"
  bottom: "data"
  top: "data_A"
  top: "data_B"
  slice_param {
    slice_dim: 1
    slice_point: 3
  }
}
layer {
  name: "label_slice"
  type: "Slice"
  bottom: "label"
  top: "label_A"
  top: "label_B"
  top: "label_S"
  slice_param {
    slice_dim: 1
    slice_point: 1
    slice_point: 2
  }
}
layer {
  name: "conv1_A"
  type: "Convolution"
  bottom: "data_A"
  top: "conv1_A"
  param {
    name: "conv1_W"
  }
  param {
    name: "conv1_b"
  }
  convolution_param {
    num_output: 32
    kernel_size: 5
    stride: 1
    weight_filler {
      type: "xavier"
    }
    bias_filler {
      type: "constant"
      value: 0
    }
  }
}
layer {
  name: "relu1_A"
  type: "ReLU"
  bottom: "conv1_A"
  top: "conv1_A"
}
layer {
  name: "pool1_A"
  type: "Pooling"
  bottom: "conv1_A"
  top: "pool1_A"
  pooling_param {
    pool: AVE
    kernel_size: 2
    stride: 2
  }
}
layer {
  name: "conv2_A"
  type: "Convolution"
  bottom: "pool1_A"
  top: "conv2_A"
  param {
    name: "conv2_W"
  }
  param {
    name: "conv2_b"
  }
  convolution_param {
    num_output: 64
    kernel_size: 3
    stride: 2
    weight_filler {
      type: "xavier"
    }
    bias_filler {
      type: "constant"
      value: 0
    }
  }
}
layer {
  name: "relu2_A"
  type: "ReLU"
  bottom: "conv2_A"
  top: "conv2_A"
}
layer {
  name: "pool2_A"
  type: "Pooling"
  bottom: "conv2_A"
  top: "pool2_A"
  pooling_param {
    pool: AVE
    kernel_size: 2
    stride: 2
  }
}
layer {
  name: "conv3_A"
  type: "Convolution"
  bottom: "pool2_A"
  top: "conv3_A"
  param {
    name: "conv3_W"
  }
  param {
    name: "conv3_b"
  }
  convolution_param {
    num_output: 32
    kernel_size: 3
    stride: 1
    weight_filler {
      type: "xavier"
    }
    bias_filler {
      type: "constant"
      value: 0
    }
  }
}
layer {
  name: "relu3_A"
  type: "ReLU"
  bottom: "conv3_A"
  top: "conv3_A"
}
layer {
  name: "pool3_A"
  type: "Pooling"
  bottom: "conv3_A"
  top: "pool3_A"
  pooling_param {
    pool: AVE
    kernel_size: 2
    stride: 2
  }
}
layer {
  name: "ip1_A"
  type: "InnerProduct"
  bottom: "pool3_A"
  top: "ip1_A"
  param {
    name: "ip1_W"
  }
  param {
    name: "ip1_b"
  }
  inner_product_param {
    num_output: 256
    weight_filler {
      type: "xavier"
    }
    bias_filler {
      type: "constant"
      value: 0
    }
  }
}
layer {
  name: "norm"
  type: "Normalization"
  bottom: "ip1_A"
  top: "feat_A"
}
layer {
  name: "conv1_B"
  type: "Convolution"
  bottom: "data_B"
  top: "conv1_B"
  param {
    name: "conv1_W"
  }
  param {
    name: "conv1_b"
  }
  convolution_param {
    num_output: 32
    kernel_size: 5
    stride: 1
    weight_filler {
      type: "xavier"
    }
    bias_filler {
      type: "constant"
      value: 0
    }
  }
}
layer {
  name: "relu1_B"
  type: "ReLU"
  bottom: "conv1_B"
  top: "conv1_B"
}
layer {
  name: "pool1_B"
  type: "Pooling"
  bottom: "conv1_B"
  top: "pool1_B"
  pooling_param {
    pool: AVE
    kernel_size: 2
    stride: 2
  }
}
layer {
  name: "conv2_B"
  type: "Convolution"
  bottom: "pool1_B"
  top: "conv2_B"
  param {
    name: "conv2_W"
  }
  param {
    name: "conv2_b"
  }
  convolution_param {
    num_output: 64
    kernel_size: 3
    stride: 2
    weight_filler {
      type: "xavier"
    }
    bias_filler {
      type: "constant"
      value: 0
    }
  }
}
layer {
  name: "relu2_B"
  type: "ReLU"
  bottom: "conv2_B"
  top: "conv2_B"
}
layer {
  name: "pool2_B"
  type: "Pooling"
  bottom: "conv2_B"
  top: "pool2_B"
  pooling_param {
    pool: AVE
    kernel_size: 2
    stride: 2
  }
}
layer {
  name: "conv3_B"
  type: "Convolution"
  bottom: "pool2_B"
  top: "conv3_B"
  param {
    name: "conv3_W"
  }
  param {
    name: "conv3_b"
  }
  convolution_param {
    num_output: 32
    kernel_size: 3
    stride: 1
    weight_filler {
      type: "xavier"
    }
    bias_filler {
      type: "constant"
      value: 0
    }
  }
}
layer {
  name: "relu3_B"
  type: "ReLU"
  bottom: "conv3_B"
  top: "conv3_B"
}
layer {
  name: "pool3_B"
  type: "Pooling"
  bottom: "conv3_B"
  top: "pool3_B"
  pooling_param {
    pool: AVE
    kernel_size: 2
    stride: 2
  }
}
layer {
  name: "ip1_B"
  type: "InnerProduct"
  bottom: "pool3_B"
  top: "ip1_B"
  param {
    name: "ip1_W"
  }
  param {
    name: "ip1_b"
  }
  inner_product_param {
    num_output: 256
    weight_filler {
      type: "xavier"
    }
    bias_filler {
      type: "constant"
      value: 0
    }
  }
}
layer {
  name: "norm"
  type: "Normalization"
  bottom: "ip1_B"
  top: "feat_B"
}
layer {
  name: "silence"
  type: "Silence"
  bottom: "label_A"
  bottom: "label_B"
}
layer {
  name: "validation"
  type: "ContrastiveLoss"
  bottom: "feat_A"
  bottom: "feat_B"
  bottom: "label_S"
  top: "loss"
  contrastive_loss_param {
    margin: 1
  }
}
I0412 01:05:24.563850 10646 layer_factory.hpp:77] Creating layer data
I0412 01:05:24.563877 10646 net.cpp:91] Creating Layer data
I0412 01:05:24.563889 10646 net.cpp:399] data -> data
I0412 01:05:24.563916 10646 net.cpp:399] data -> label
I0412 01:05:24.563935 10646 hdf5_data_layer.cpp:79] Loading list of HDF5 filenames from: metric_shuf.txt
…
I0412 01:10:40.321192 11701 solver.cpp:48] Initializing solver from parameters: 
base_lr: 0.001
display: 100
max_iter: 100000
lr_policy: "step"
gamma: 0.5
momentum: 0.9
weight_decay: 0.0001
stepsize: 10000
solver_mode: GPU
device_id: 0
net: "train_val.prototxt.gpu"
I0412 01:10:40.321261 11701 solver.cpp:91] Creating training net from net file: train_val.prototxt.gpu
I0412 01:10:40.321962 11701 net.cpp:49] Initializing net from parameters: 
name: "metric"
state {
  phase: TRAIN
}
layer {
  name: "data"
  type: "HDF5Data"
  top: "data"
  top: "label"
  hdf5_data_param {
    source: "metric_shuf.txt.gpu"
    batch_size: 64
  }
}
layer {
  name: "data_slice"
  type: "Slice"
  bottom: "data"
  top: "data_A"
  top: "data_B"
  slice_param {
    slice_dim: 1
    slice_point: 3
  }
}
layer {
  name: "label_slice"
  type: "Slice"
  bottom: "label"
  top: "label_A"
  top: "label_B"
  top: "label_S"
  slice_param {
    slice_dim: 1
    slice_point: 1
    slice_point: 2
  }
}
layer {
  name: "conv1_A"
  type: "Convolution"
  bottom: "data_A"
  top: "conv1_A"
  param {
    name: "conv1_W"
  }
  param {
    name: "conv1_b"
  }
  convolution_param {
    num_output: 32
    kernel_size: 5
    stride: 1
    weight_filler {
      type: "xavier"
    }
    bias_filler {
      type: "constant"
      value: 0
    }
  }
}
layer {
  name: "relu1_A"
  type: "ReLU"
  bottom: "conv1_A"
  top: "conv1_A"
}
layer {
  name: "pool1_A"
  type: "Pooling"
  bottom: "conv1_A"
  top: "pool1_A"
  pooling_param {
    pool: AVE
    kernel_size: 2
    stride: 2
  }
}
layer {
  name: "conv2_A"
  type: "Convolution"
  bottom: "pool1_A"
  top: "conv2_A"
  param {
    name: "conv2_W"
  }
  param {
    name: "conv2_b"
  }
  convolution_param {
    num_output: 64
    kernel_size: 3
    stride: 2
    weight_filler {
      type: "xavier"
    }
    bias_filler {
      type: "constant"
      value: 0
    }
  }
}
layer {
  name: "relu2_A"
  type: "ReLU"
  bottom: "conv2_A"
  top: "conv2_A"
}
layer {
  name: "pool2_A"
  type: "Pooling"
  bottom: "conv2_A"
  top: "pool2_A"
  pooling_param {
    pool: AVE
    kernel_size: 2
    stride: 2
  }
}
layer {
  name: "conv3_A"
  type: "Convolution"
  bottom: "pool2_A"
  top: "conv3_A"
  param {
    name: "conv3_W"
  }
  param {
    name: "conv3_b"
  }
  convolution_param {
    num_output: 32
    kernel_size: 3
    stride: 1
    weight_filler {
      type: "xavier"
    }
    bias_filler {
      type: "constant"
      value: 0
    }
  }
}
layer {
  name: "relu3_A"
  type: "ReLU"
  bottom: "conv3_A"
  top: "conv3_A"
}
layer {
  name: "pool3_A"
  type: "Pooling"
  bottom: "conv3_A"
  top: "pool3_A"
  pooling_param {
    pool: AVE
    kernel_size: 2
    stride: 2
  }
}
layer {
  name: "ip1_A"
  type: "InnerProduct"
  bottom: "pool3_A"
  top: "ip1_A"
  param {
    name: "ip1_W"
  }
  param {
    name: "ip1_b"
  }
  inner_product_param {
    num_output: 256
    weight_filler {
      type: "xavier"
    }
    bias_filler {
      type: "constant"
      value: 0
    }
  }
}
layer {
  name: "norm"
  type: "Normalization"
  bottom: "ip1_A"
  top: "feat_A"
}
layer {
  name: "conv1_B"
  type: "Convolution"
  bottom: "data_B"
  top: "conv1_B"
  param {
    name: "conv1_W"
  }
  param {
    name: "conv1_b"
  }
  convolution_param {
    num_output: 32
    kernel_size: 5
    stride: 1
    weight_filler {
      type: "xavier"
    }
    bias_filler {
      type: "constant"
      value: 0
    }
  }
}
layer {
  name: "relu1_B"
  type: "ReLU"
  bottom: "conv1_B"
  top: "conv1_B"
}
layer {
  name: "pool1_B"
  type: "Pooling"
  bottom: "conv1_B"
  top: "pool1_B"
  pooling_param {
    pool: AVE
    kernel_size: 2
    stride: 2
  }
}
layer {
  name: "conv2_B"
  type: "Convolution"
  bottom: "pool1_B"
  top: "conv2_B"
  param {
    name: "conv2_W"
  }
  param {
    name: "conv2_b"
  }
  convolution_param {
    num_output: 64
    kernel_size: 3
    stride: 2
    weight_filler {
      type: "xavier"
    }
    bias_filler {
      type: "constant"
      value: 0
    }
  }
}
layer {
  name: "relu2_B"
  type: "ReLU"
  bottom: "conv2_B"
  top: "conv2_B"
}
layer {
  name: "pool2_B"
  type: "Pooling"
  bottom: "conv2_B"
  top: "pool2_B"
  pooling_param {
    pool: AVE
    kernel_size: 2
    stride: 2
  }
}
layer {
  name: "conv3_B"
  type: "Convolution"
  bottom: "pool2_B"
  top: "conv3_B"
  param {
    name: "conv3_W"
  }
  param {
    name: "conv3_b"
  }
  convolution_param {
    num_output: 32
    kernel_size: 3
    stride: 1
    weight_filler {
      type: "xavier"
    }
    bias_filler {
      type: "constant"
      value: 0
    }
  }
}
layer {
  name: "relu3_B"
  type: "ReLU"
  bottom: "conv3_B"
  top: "conv3_B"
}
layer {
  name: "pool3_B"
  type: "Pooling"
  bottom: "conv3_B"
  top: "pool3_B"
  pooling_param {
    pool: AVE
    kernel_size: 2
    stride: 2
  }
}
layer {
  name: "ip1_B"
  type: "InnerProduct"
  bottom: "pool3_B"
  top: "ip1_B"
  param {
    name: "ip1_W"
  }
  param {
    name: "ip1_b"
  }
  inner_product_param {
    num_output: 256
    weight_filler {
      type: "xavier"
    }
    bias_filler {
      type: "constant"
      value: 0
    }
  }
}
layer {
  name: "norm"
  type: "Normalization"
  bottom: "ip1_B"
  top: "feat_B"
}
layer {
  name: "silence"
  type: "Silence"
  bottom: "label_A"
  bottom: "label_B"
}
layer {
  name: "validation"
  type: "ContrastiveLoss"
  bottom: "feat_A"
  bottom: "feat_B"
  bottom: "label_S"
  top: "loss"
  contrastive_loss_param {
    margin: 1
  }
}
I0412 01:10:40.322104 11701 layer_factory.hpp:77] Creating layer data
I0412 01:10:40.322134 11701 net.cpp:91] Creating Layer data
I0412 01:10:40.322146 11701 net.cpp:399] data -> data
I0412 01:10:40.322175 11701 net.cpp:399] data -> label
I0412 01:10:40.322196 11701 hdf5_data_layer.cpp:79] Loading list of HDF5 filenames from: metric_shuf.txt.gpu
I0412 01:10:40.323078 11701 hdf5_data_layer.cpp:93] Number of HDF5 files: 2800
I0412 01:10:40.323938 11701 hdf5.cpp:35] Datatype class: H5T_INTEGER
I0412 01:10:40.334355 11701 net.cpp:141] Setting up data
I0412 01:10:40.334396 11701 net.cpp:148] Top shape: 64 6 128 64 (3145728)
I0412 01:10:40.334408 11701 net.cpp:148] Top shape: 64 3 1 1 (192)
I0412 01:10:40.334415 11701 net.cpp:156] Memory required for data: 12583680
I0412 01:10:40.334427 11701 layer_factory.hpp:77] Creating layer data_slice
I0412 01:10:40.334450 11701 net.cpp:91] Creating Layer data_slice
I0412 01:10:40.334460 11701 net.cpp:425] data_slice <- data
I0412 01:10:40.334475 11701 net.cpp:399] data_slice -> data_A
I0412 01:10:40.334491 11701 net.cpp:399] data_slice -> data_B
I0412 01:10:40.334532 11701 net.cpp:141] Setting up data_slice
I0412 01:10:40.334544 11701 net.cpp:148] Top shape: 64 3 128 64 (1572864)
I0412 01:10:40.334553 11701 net.cpp:148] Top shape: 64 3 128 64 (1572864)
I0412 01:10:40.334560 11701 net.cpp:156] Memory required for data: 25166592
I0412 01:10:40.334568 11701 layer_factory.hpp:77] Creating layer label_slice
I0412 01:10:40.334578 11701 net.cpp:91] Creating Layer label_slice
I0412 01:10:40.334586 11701 net.cpp:425] label_slice <- label
I0412 01:10:40.334595 11701 net.cpp:399] label_slice -> label_A
I0412 01:10:40.334607 11701 net.cpp:399] label_slice -> label_B
I0412 01:10:40.334619 11701 net.cpp:399] label_slice -> label_S
I0412 01:10:40.334663 11701 net.cpp:141] Setting up label_slice
I0412 01:10:40.334676 11701 net.cpp:148] Top shape: 64 1 1 1 (64)
I0412 01:10:40.334686 11701 net.cpp:148] Top shape: 64 1 1 1 (64)
I0412 01:10:40.334693 11701 net.cpp:148] Top shape: 64 1 1 1 (64)
I0412 01:10:40.334700 11701 net.cpp:156] Memory required for data: 25167360
I0412 01:10:40.334707 11701 layer_factory.hpp:77] Creating layer conv1_A
I0412 01:10:40.334728 11701 net.cpp:91] Creating Layer conv1_A
I0412 01:10:40.334735 11701 net.cpp:425] conv1_A <- data_A
I0412 01:10:40.334745 11701 net.cpp:399] conv1_A -> conv1_A
I0412 01:10:40.336151 11701 net.cpp:141] Setting up conv1_A
I0412 01:10:40.336171 11701 net.cpp:148] Top shape: 64 32 124 60 (15237120)
I0412 01:10:40.336179 11701 net.cpp:156] Memory required for data: 86115840
I0412 01:10:40.336196 11701 layer_factory.hpp:77] Creating layer relu1_A
I0412 01:10:40.336208 11701 net.cpp:91] Creating Layer relu1_A
I0412 01:10:40.336228 11701 net.cpp:425] relu1_A <- conv1_A
I0412 01:10:40.336238 11701 net.cpp:386] relu1_A -> conv1_A (in-place)
I0412 01:10:40.336251 11701 net.cpp:141] Setting up relu1_A
I0412 01:10:40.336261 11701 net.cpp:148] Top shape: 64 32 124 60 (15237120)
I0412 01:10:40.336272 11701 net.cpp:156] Memory required for data: 147064320
I0412 01:10:40.336278 11701 layer_factory.hpp:77] Creating layer pool1_A
I0412 01:10:40.336289 11701 net.cpp:91] Creating Layer pool1_A
I0412 01:10:40.336297 11701 net.cpp:425] pool1_A <- conv1_A
I0412 01:10:40.336305 11701 net.cpp:399] pool1_A -> pool1_A
I0412 01:10:40.336352 11701 net.cpp:141] Setting up pool1_A
I0412 01:10:40.336367 11701 net.cpp:148] Top shape: 64 32 62 30 (3809280)
I0412 01:10:40.336374 11701 net.cpp:156] Memory required for data: 162301440
I0412 01:10:40.336382 11701 layer_factory.hpp:77] Creating layer conv2_A
I0412 01:10:40.336395 11701 net.cpp:91] Creating Layer conv2_A
I0412 01:10:40.336403 11701 net.cpp:425] conv2_A <- pool1_A
I0412 01:10:40.336413 11701 net.cpp:399] conv2_A -> conv2_A
I0412 01:10:40.337571 11701 net.cpp:141] Setting up conv2_A
I0412 01:10:40.337591 11701 net.cpp:148] Top shape: 64 64 30 14 (1720320)
I0412 01:10:40.337599 11701 net.cpp:156] Memory required for data: 169182720
I0412 01:10:40.337611 11701 layer_factory.hpp:77] Creating layer relu2_A
I0412 01:10:40.337621 11701 net.cpp:91] Creating Layer relu2_A
I0412 01:10:40.337630 11701 net.cpp:425] relu2_A <- conv2_A
I0412 01:10:40.337638 11701 net.cpp:386] relu2_A -> conv2_A (in-place)
I0412 01:10:40.337648 11701 net.cpp:141] Setting up relu2_A
I0412 01:10:40.337658 11701 net.cpp:148] Top shape: 64 64 30 14 (1720320)
I0412 01:10:40.337666 11701 net.cpp:156] Memory required for data: 176064000
I0412 01:10:40.337672 11701 layer_factory.hpp:77] Creating layer pool2_A
I0412 01:10:40.337682 11701 net.cpp:91] Creating Layer pool2_A
I0412 01:10:40.337690 11701 net.cpp:425] pool2_A <- conv2_A
I0412 01:10:40.337699 11701 net.cpp:399] pool2_A -> pool2_A
I0412 01:10:40.337728 11701 net.cpp:141] Setting up pool2_A
I0412 01:10:40.337741 11701 net.cpp:148] Top shape: 64 64 15 7 (430080)
I0412 01:10:40.337749 11701 net.cpp:156] Memory required for data: 177784320
I0412 01:10:40.337755 11701 layer_factory.hpp:77] Creating layer conv3_A
I0412 01:10:40.337769 11701 net.cpp:91] Creating Layer conv3_A
I0412 01:10:40.337776 11701 net.cpp:425] conv3_A <- pool2_A
I0412 01:10:40.337787 11701 net.cpp:399] conv3_A -> conv3_A
I0412 01:10:40.338122 11701 net.cpp:141] Setting up conv3_A
I0412 01:10:40.338138 11701 net.cpp:148] Top shape: 64 32 13 5 (133120)
I0412 01:10:40.338145 11701 net.cpp:156] Memory required for data: 178316800
I0412 01:10:40.338156 11701 layer_factory.hpp:77] Creating layer relu3_A
I0412 01:10:40.338166 11701 net.cpp:91] Creating Layer relu3_A
I0412 01:10:40.338174 11701 net.cpp:425] relu3_A <- conv3_A
I0412 01:10:40.338183 11701 net.cpp:386] relu3_A -> conv3_A (in-place)
I0412 01:10:40.338193 11701 net.cpp:141] Setting up relu3_A
I0412 01:10:40.338202 11701 net.cpp:148] Top shape: 64 32 13 5 (133120)
I0412 01:10:40.338209 11701 net.cpp:156] Memory required for data: 178849280
I0412 01:10:40.338217 11701 layer_factory.hpp:77] Creating layer pool3_A
I0412 01:10:40.338227 11701 net.cpp:91] Creating Layer pool3_A
I0412 01:10:40.338233 11701 net.cpp:425] pool3_A <- conv3_A
I0412 01:10:40.338243 11701 net.cpp:399] pool3_A -> pool3_A
I0412 01:10:40.338274 11701 net.cpp:141] Setting up pool3_A
I0412 01:10:40.338285 11701 net.cpp:148] Top shape: 64 32 7 3 (43008)
I0412 01:10:40.338292 11701 net.cpp:156] Memory required for data: 179021312
I0412 01:10:40.338300 11701 layer_factory.hpp:77] Creating layer ip1_A
I0412 01:10:40.338312 11701 net.cpp:91] Creating Layer ip1_A
I0412 01:10:40.338320 11701 net.cpp:425] ip1_A <- pool3_A
I0412 01:10:40.338330 11701 net.cpp:399] ip1_A -> ip1_A
I0412 01:10:40.340090 11701 net.cpp:141] Setting up ip1_A
I0412 01:10:40.340109 11701 net.cpp:148] Top shape: 64 256 (16384)
I0412 01:10:40.340117 11701 net.cpp:156] Memory required for data: 179086848
I0412 01:10:40.340137 11701 layer_factory.hpp:77] Creating layer norm
I0412 01:10:40.340152 11701 net.cpp:91] Creating Layer norm
I0412 01:10:40.340160 11701 net.cpp:425] norm <- ip1_A
I0412 01:10:40.340169 11701 net.cpp:399] norm -> feat_A
I0412 01:10:40.340212 11701 net.cpp:141] Setting up norm
I0412 01:10:40.340225 11701 net.cpp:148] Top shape: 64 256 (16384)
I0412 01:10:40.340232 11701 net.cpp:156] Memory required for data: 179152384
I0412 01:10:40.340240 11701 layer_factory.hpp:77] Creating layer conv1_B
I0412 01:10:40.340253 11701 net.cpp:91] Creating Layer conv1_B
I0412 01:10:40.340261 11701 net.cpp:425] conv1_B <- data_B
I0412 01:10:40.340271 11701 net.cpp:399] conv1_B -> conv1_B
I0412 01:10:40.340507 11701 net.cpp:141] Setting up conv1_B
I0412 01:10:40.340524 11701 net.cpp:148] Top shape: 64 32 124 60 (15237120)
I0412 01:10:40.340531 11701 net.cpp:156] Memory required for data: 240100864
I0412 01:10:40.340541 11701 net.cpp:485] Sharing parameters 'conv1_W' owned by layer 'conv1_A', param index 0
I0412 01:10:40.340550 11701 net.cpp:485] Sharing parameters 'conv1_b' owned by layer 'conv1_A', param index 1
I0412 01:10:40.340558 11701 layer_factory.hpp:77] Creating layer relu1_B
I0412 01:10:40.340567 11701 net.cpp:91] Creating Layer relu1_B
I0412 01:10:40.340574 11701 net.cpp:425] relu1_B <- conv1_B
I0412 01:10:40.340584 11701 net.cpp:386] relu1_B -> conv1_B (in-place)
I0412 01:10:40.340595 11701 net.cpp:141] Setting up relu1_B
I0412 01:10:40.340603 11701 net.cpp:148] Top shape: 64 32 124 60 (15237120)
I0412 01:10:40.340610 11701 net.cpp:156] Memory required for data: 301049344
I0412 01:10:40.340617 11701 layer_factory.hpp:77] Creating layer pool1_B
I0412 01:10:40.340628 11701 net.cpp:91] Creating Layer pool1_B
I0412 01:10:40.340636 11701 net.cpp:425] pool1_B <- conv1_B
I0412 01:10:40.340646 11701 net.cpp:399] pool1_B -> pool1_B
I0412 01:10:40.340675 11701 net.cpp:141] Setting up pool1_B
I0412 01:10:40.340689 11701 net.cpp:148] Top shape: 64 32 62 30 (3809280)
I0412 01:10:40.340697 11701 net.cpp:156] Memory required for data: 316286464
I0412 01:10:40.340704 11701 layer_factory.hpp:77] Creating layer conv2_B
I0412 01:10:40.340716 11701 net.cpp:91] Creating Layer conv2_B
I0412 01:10:40.340724 11701 net.cpp:425] conv2_B <- pool1_B
I0412 01:10:40.340735 11701 net.cpp:399] conv2_B -> conv2_B
I0412 01:10:40.341073 11701 net.cpp:141] Setting up conv2_B
I0412 01:10:40.341089 11701 net.cpp:148] Top shape: 64 64 30 14 (1720320)
I0412 01:10:40.341095 11701 net.cpp:156] Memory required for data: 323167744
I0412 01:10:40.341104 11701 net.cpp:485] Sharing parameters 'conv2_W' owned by layer 'conv2_A', param index 0
I0412 01:10:40.341112 11701 net.cpp:485] Sharing parameters 'conv2_b' owned by layer 'conv2_A', param index 1
I0412 01:10:40.341120 11701 layer_factory.hpp:77] Creating layer relu2_B
I0412 01:10:40.341130 11701 net.cpp:91] Creating Layer relu2_B
I0412 01:10:40.341136 11701 net.cpp:425] relu2_B <- conv2_B
I0412 01:10:40.341145 11701 net.cpp:386] relu2_B -> conv2_B (in-place)
I0412 01:10:40.341156 11701 net.cpp:141] Setting up relu2_B
I0412 01:10:40.341166 11701 net.cpp:148] Top shape: 64 64 30 14 (1720320)
I0412 01:10:40.341171 11701 net.cpp:156] Memory required for data: 330049024
I0412 01:10:40.341179 11701 layer_factory.hpp:77] Creating layer pool2_B
I0412 01:10:40.341188 11701 net.cpp:91] Creating Layer pool2_B
I0412 01:10:40.341195 11701 net.cpp:425] pool2_B <- conv2_B
I0412 01:10:40.341204 11701 net.cpp:399] pool2_B -> pool2_B
I0412 01:10:40.341233 11701 net.cpp:141] Setting up pool2_B
I0412 01:10:40.341245 11701 net.cpp:148] Top shape: 64 64 15 7 (430080)
I0412 01:10:40.341253 11701 net.cpp:156] Memory required for data: 331769344
I0412 01:10:40.341260 11701 layer_factory.hpp:77] Creating layer conv3_B
I0412 01:10:40.341272 11701 net.cpp:91] Creating Layer conv3_B
I0412 01:10:40.341280 11701 net.cpp:425] conv3_B <- pool2_B
I0412 01:10:40.341290 11701 net.cpp:399] conv3_B -> conv3_B
I0412 01:10:40.341631 11701 net.cpp:141] Setting up conv3_B
I0412 01:10:40.341647 11701 net.cpp:148] Top shape: 64 32 13 5 (133120)
I0412 01:10:40.341661 11701 net.cpp:156] Memory required for data: 332301824
I0412 01:10:40.341670 11701 net.cpp:485] Sharing parameters 'conv3_W' owned by layer 'conv3_A', param index 0
I0412 01:10:40.341678 11701 net.cpp:485] Sharing parameters 'conv3_b' owned by layer 'conv3_A', param index 1
I0412 01:10:40.341689 11701 layer_factory.hpp:77] Creating layer relu3_B
I0412 01:10:40.341699 11701 net.cpp:91] Creating Layer relu3_B
I0412 01:10:40.341706 11701 net.cpp:425] relu3_B <- conv3_B
I0412 01:10:40.341716 11701 net.cpp:386] relu3_B -> conv3_B (in-place)
I0412 01:10:40.341727 11701 net.cpp:141] Setting up relu3_B
I0412 01:10:40.341735 11701 net.cpp:148] Top shape: 64 32 13 5 (133120)
I0412 01:10:40.341742 11701 net.cpp:156] Memory required for data: 332834304
I0412 01:10:40.341749 11701 layer_factory.hpp:77] Creating layer pool3_B
I0412 01:10:40.341758 11701 net.cpp:91] Creating Layer pool3_B
I0412 01:10:40.341766 11701 net.cpp:425] pool3_B <- conv3_B
I0412 01:10:40.341775 11701 net.cpp:399] pool3_B -> pool3_B
I0412 01:10:40.341804 11701 net.cpp:141] Setting up pool3_B
I0412 01:10:40.341817 11701 net.cpp:148] Top shape: 64 32 7 3 (43008)
I0412 01:10:40.341825 11701 net.cpp:156] Memory required for data: 333006336
I0412 01:10:40.341831 11701 layer_factory.hpp:77] Creating layer ip1_B
I0412 01:10:40.341842 11701 net.cpp:91] Creating Layer ip1_B
I0412 01:10:40.341850 11701 net.cpp:425] ip1_B <- pool3_B
I0412 01:10:40.341861 11701 net.cpp:399] ip1_B -> ip1_B
I0412 01:10:40.343668 11701 net.cpp:141] Setting up ip1_B
I0412 01:10:40.343688 11701 net.cpp:148] Top shape: 64 256 (16384)
I0412 01:10:40.343696 11701 net.cpp:156] Memory required for data: 333071872
I0412 01:10:40.343704 11701 net.cpp:485] Sharing parameters 'ip1_W' owned by layer 'ip1_A', param index 0
I0412 01:10:40.343713 11701 net.cpp:485] Sharing parameters 'ip1_b' owned by layer 'ip1_A', param index 1
I0412 01:10:40.343720 11701 layer_factory.hpp:77] Creating layer norm
I0412 01:10:40.343730 11701 net.cpp:91] Creating Layer norm
I0412 01:10:40.343737 11701 net.cpp:425] norm <- ip1_B
I0412 01:10:40.343747 11701 net.cpp:399] norm -> feat_B
I0412 01:10:40.343786 11701 net.cpp:141] Setting up norm
I0412 01:10:40.343799 11701 net.cpp:148] Top shape: 64 256 (16384)
I0412 01:10:40.343806 11701 net.cpp:156] Memory required for data: 333137408
I0412 01:10:40.343813 11701 layer_factory.hpp:77] Creating layer silence
I0412 01:10:40.343827 11701 net.cpp:91] Creating Layer silence
I0412 01:10:40.343835 11701 net.cpp:425] silence <- label_A
I0412 01:10:40.343843 11701 net.cpp:425] silence <- label_B
I0412 01:10:40.343852 11701 net.cpp:141] Setting up silence
…
